LSM/model.pth (torch, 97460 bytes, 5 tensors)

fc1.weight f4 [128, 120]
00000000: 444c 24bd 2011 efbb 540f 683d 6e37 91bd
00000010: 568c 1dbd a094 213d 8c50 133d 8892 ec3c
00000020: dd62 22bd 7c33 b0bc f56c 96bd 5030 aabc
00000030: 0f0c 83bd 5cb1 aebc df61 82bd de22 0fbd
00000040: 1bae 14bd 52bb a33d ac55 b2bd 8ce6 573d
00000050: c241 923d 005a 7c39 365a 3dbd 22ea 6dbd
00000060: f861 f1bc 6c23 9c3c 8dab a9bd 2c0d ed3c
00000070: 3455 693d f886 a0bd 967d b6bd c8b7 633d
00000080: d813 8d3c dc21 283d f04e d2bb c8ee 403c
00000090: 300a d93b 51c9 9dbd 28d7 55bd 84e0 19bd
000000a0: a280 76bd e246 8f3d 306f edbc c02f 68bc
000000b0: eeb1 adbd 0e95 b93d 40c4 b23c b005 333c
000000c0: 6b1e 1dbd ead4 b53d a065 9f3b e857 48bd
000000d0: a78e a9bd 8d0c 06bd 30c4 dcbc b140 89bd
000000e0: 8c05 69bd 2cd6 a0bc e078 313b e45f 453d
000000f0: 044e aebd 8d6a 21bd 28ca bb3c f444 e23c
00000100: d6bb 8e3d 48b2 d83c 3ee6 75bd b037 1dbc
00000110: ea7c 49bd 3462 ac3d be4b 85bd f84c f1bc
00000120: 7047 a33d 0cfc 4a3d b900 9ebd 7c29 fcbc
00000130: dfb2 47bd 60dd 8bbb f8b0 ba3c 8082 143d
00000140: feab a03d 7621 1cbd 4c72 943d e90b 45bd
00000150: e6b3 82bd cad3 11bd 68bd 643d dcab 10bd
00000160: 0498 50bd d283 7fbd 4428 b1bc 2427 c4bc
00000170: 5239 913d 9e33 a6bd 54b9 9ebc a0e6 c53b
00000180: 9071 cfbb b931 94bd 90f6 4d3d 086f b03c
00000190: 1870 28bc f0f9 d1bb 987d dfbc 4cf6 83bc
000001a0: 40df 473d 9ca1 a3bd 9676 35bd 7c12 a4bd
000001b0: fe85 86bd 9ab2 febc d4cb d73c 8cf1 283d
000001c0: f833 3d3c 2e61 8a3d d0de b83d 08d4 9e3c
000001d0: b0ea c3bb dc1f 9cbc 8acb 6abd 8c53 3f3d
000001e0: de85 59bd 84bd dc3c 0090 c9b7 256e 5dbd
000001f0: 3dab 16bd 368e 08bd c0e6 3c3c c066 ed3c
00000200: dd68 1abd bc7b 843c b032 aa3d bd45 83bd
00000210: 82e1 81bd 28b6 80bd c4d0 90bc 4ccd abbc
00000220: d4c0 e4bc 0c18 213d 3c83 423d 5824 323d
00000230: 9066 643d 2e82 f5bc bcaf 1c3d 3c7a a2bc
00000240: c488 a33c 5c41 183d d815 68bc 50e1 793d
00000250: d0e6 08bc fad8 803d 8411 6a3d 3037 193c
00000260: 0014 88ba 00ac 85bc c0ee 533c a052 553c
00000270: a0b6 5abc 285b 553c c892 563d cb03 9cbd
00000280: 0053 21ba c87e bfbc ace1 0f3d 55a0 28bd
00000290: 6040 d4bb 60a3 f03c 7c45 5cbd 3c41 b5bd
000002a0: b40e 8fbd e147 38bd 1c8c 7b3d 80a5 9a3a
000002b0: c888 733d 428a 63bd c951 aebd 35f5 50bd
000002c0: d8c9 a93d 98d7 aa3c b6e1 a23d 18e8 b83c
000002d0: 1cf3 dcbc 1ced fd3c afa2 82bd f47b 603d
000002e0: e00a 473d f4cf a53d ec52 53bd 1860 993d
000002f0: a453 4cbd ec24 723d e306 6abd b54f 54bd
00000300: 60e0 60bc 4418 bdbc 00df 613d dc14 ea3c
00000310: ba7e 6bbd acdc a8bd ac4b 813c 10e6 65bc
00000320: 9c8e 95bd 6046 8fbd 39ce 4abd 4fd2 b9bd
00000330: b006 a5bb 90c7 743d 0e75 a5bd 0c5b f7bc
00000340: 64b9 203d 802c 9d3b 1169 39bd 76ad 3cbd
00000350: 2845 70bc 962d 8a3d 6f60 88bd 0098 42b9
00000360: d3e9 b5bd d4dc 9e3d bc4f 3a3d 7860 753c
00000370: 101c c2bb ca10 8f3d 8efb 8d3d 4cda c23c
00000380: b587 29bd 8e16 b43d a8de 20bc a8ef 3a3d
00000390: f80b fa3c 177b 14bd 4c12 493d 3cf3 8e3d
000003a0: 002c afbc e070 17bb 28fe 9dbd a45b 11bd
000003b0: a566 99bd 506d 3c3d 9eae 93bd bcaf e1bc
000003c0: c394 c4bd a19e a63d 1297 5f3c 534d 87bd
000003d0: 8f9e b4bd 0929 8dbd ddd7 93bd 46f2 a83c
000003e0: 60c5 bbbd 2855 bc3a 35d3 84bc e09d 07bd
000003f0: 5129 5e3d 3168 a1bd 3e45 a33c 505a a8bd
-0.040111795 -0.0072957426 0.056655243 -0.070906505 -0.038463913 0.03944838 0.035965487 0.028878465
-0.039645065 -0.021508925 -0.07345001 -0.02077499 -0.06398784 -0.021324806 -0.06366324 -0.03494536
-0.036298852 0.07994713 -0.08707747 0.0527101 0.071414486 0.0002406612 -0.04622861 -0.058084615
-0.02946566 0.01905986 -0.08284674 0.028936945 0.05696602 -0.07838243 -0.08910672 0.05559519
0.017221376 0.041047916 -0.0064181015 0.01177568 0.006623529 -0.07704414 -0.052207142 -0.03756763
-0.060181268 0.06995942 -0.028983682 -0.014171541 -0.08481203 0.09061633 0.021822095 0.010926649
-0.038359087 0.08878501 0.0048644096 -0.04891196 -0.08279162 -0.032726813 -0.026949018 -0.06701792
-0.056890056 -0.019633375 0.0027080104 0.04818715 -0.08510974 -0.039408255 0.022923544 0.02762077
0.069694206 0.026452199 -0.06003403 -0.0095957965 -0.049191393 0.08417168 -0.06508587 -0.029455647
0.0797261 0.049556777 -0.077149816 -0.0307815 -0.04875457 -0.0042683333 0.022789463 0.036257267
0.07845305 -0.03811785 0.07248363 -0.04810706 -0.06381969 -0.03560237 0.055844694 -0.035320148
-0.050926223 -0.062381573 -0.021625645 -0.023944445 0.07091011 -0.08115314 -0.01937548 0.0060394555
-0.0063306764 -0.07236046 0.05028397 0.021537319 -0.0102806315 -0.0064079687 -0.027281567 -0.016108654
0.048796892 -0.07989809 -0.044302545 -0.08011338 -0.06568526 -0.031091023 0.02634231 0.041245982
0.011548035 0.06756817 0.09026873 0.019388214 -0.0059789047 -0.01905816 -0.057323016 0.046710536
-0.05310618 0.026945837 -2.4028122e-05 -0.05406012 -0.0367844 -0.033338748 0.011529624 0.02897966
-0.03769766 0.016172282 0.08310449 -0.06409786 -0.0634184 -0.062847435 -0.017677672 -0.020971917
-0.027923979 0.039329574 0.047488436 0.04349169 0.055761874 -0.029969301 0.03825353 -0.019833677
0.019962676 0.037171707 -0.014165364 0.06100589 -0.008355811 0.06291385 0.05714561 0.009351537
-0.0010381937 -0.016317368 0.01293534 0.013020188 -0.013349205 0.013022222 0.052386075 -0.07617911
-0.00061540306 -0.023375884 0.035127327 -0.04116853 -0.0064774007 0.029374778 -0.053777203 -0.08850333
-0.06985226 -0.044990424 0.061412916 0.001179859 0.059456617 -0.055551775 -0.08511693 -0.051015098
0.08290452 0.020854756 0.07953207 0.022571608 -0.026971392 0.030996852 -0.06378686 0.05480571
0.048594356 0.080963045 -0.051592752 0.074890316 -0.049884453 0.059117243 -0.057135474 -0.051833827
-0.01372537 -0.02308286 0.05514431 0.0285744 -0.057493903 -0.08245215 0.015783153 -0.014031902
-0.07302591 -0.06995845 -0.049513076 -0.09073316 -0.0050361976 0.05976063 -0.08078967 -0.030194782
0.039239302 0.0047965646 -0.045266215 -0.046063863 -0.014664926 0.06746976 -0.06659018 -0.00018557906
-0.08882489 0.07756963 0.045486197 0.014976613 -0.0059237555 0.06985624 0.06932746 0.023785733
-0.041389186 0.087933645 -0.00981871 0.04563871 0.030523285 -0.0362502 0.049089715 0.06979987
-0.021383286 -0.002310805 -0.07714492 -0.035487786 -0.07490281 0.046002686 -0.0721104 -0.027549617
-0.095986865 0.08135725 0.013646858 -0.06606545 -0.08819305 -0.068925925 -0.07218907 0.020623337
-0.09168506 0.001436864 -0.016213993 -0.033109546 0.05423862 -0.07881201 0.019930478 -0.08220351

fc1.bias f4 [128]
00000000: e319 36bd b625 76bd 0fa1 8bbd 651d 5c3c
00000010: c155 1cbd 5b78 6abd 0a1d 243d d0d8 1fbd
00000020: 2082 583a 6d70 993c cf50 1abd 1f8c a7bd
00000030: 6f46 ce39 bdca 463b cd3f ed3d 71c8 1f3e
00000040: 1134 4bbd b1c9 bcbc 5f55 7c3d 194c 02bb
00000050: 7025 1c3b f8fb 73bd f111 79bd a066 12bd
00000060: ebad b9bc 9037 d3bc d6b5 3cbd 9201 81bd
00000070: 66b8 3dbd b212 a5ba 0e79 5f3d 84ca 013d
00000080: 3cff a53d daca 31bd 25e0 65bc 5d5b 08bd
00000090: 6892 713d 45c9 2b3e b302 a6bc 1a44 81bc
000000a0: c755 8f3d 5a84 613a 79ce 013e c064 74ba
000000b0: 8e88 293e 5193 363d 9f7f 2b3e a1ae 803d
000000c0: fdb9 41bd 144e 723a c232 9ebc 5ba3 903b
000000d0: b573 dfbb a812 733d cfac 23bd 4ab0 723d
000000e0: d13f 9fbd b95c 08bd 6964 473c 8c3e 0ebc
000000f0: 879e 1a3d a52c 263d e854 cc3c 040a 453c
00000100: 9210 65bc 5f3f 203d 0c05 5fbd 37a2 6ebd
00000110: ec69 dcbd 4965 0bbe 29cd 23bd 969c bd3c
00000120: 8254 9b3c d1e0 c23c 22df 3c3d 1b29 22bd
00000130: 0e5d 8c3c 1466 f7ba 720b 003d d5d5 9ebd
00000140: 1ac9 6d3d 96b6 95b9 733e 16bb 2eb0 253d
00000150: bdf7 8ebd 7e2d 48bd ff73 6cbd 3e41 80bc
00000160: 9e65 413d ce7b d13c 8da0 c03c cd99 47bd
00000170: 2596 42bd fb70 31bd 7795 3cbd 133d 87bd
00000180: 7303 95bd f1c4 4c3d eff2 a33d 452d 2abd
00000190: a50d 64bd 237d 3f3d 995d e43d 56e7 59bd
000001a0: cbbb 0abd 2f6d 883c e244 953d c715 2abe
000001b0: 94b9 aabd 68b6 193d 94a6 81bc a31e a33d
000001c0: 6721 8dbc 722f c33c 156a c03d e9c1 6c3d
000001d0: b963 55ba 6c9e c23d 7053 313c 4901 a2bd
000001e0: d482 183d 4580 c93c ab8a 28be 32ca cc3d
000001f0: 87a7 88bc c32c 283c 37fe 0cbd 9221 3ebc
-0.04445828 -0.060094558 -0.06817829 0.013434743 -0.03816772 -0.057243686 0.040066756 -0.039025128
0.0008259136 0.018730367 -0.03767472 -0.08181023 0.0003934386 0.0030333244 0.11584435 0.15603806
-0.0496102 -0.023045393 0.061604854 -0.0019881784 0.0023826025 -0.059566468 -0.060808126 -0.035742402
-0.022665938 -0.02578333 -0.04607185 -0.06299128 -0.046318434 -0.0012594073 0.054558806 0.031687275
0.08105323 -0.043406345 -0.014030491 -0.033290256 0.058977515 0.16775997 -0.020264959 -0.015779544
0.069987826 0.0008602791 0.1267642 -0.0009322874 0.16555998 0.044574086 0.16747902 0.06283308
-0.047296513 0.0009243202 -0.019311313 0.0044140047 -0.0068192133 0.059343964 -0.039959725 0.059250154
-0.07775844 -0.033291552 0.012169936 -0.0086819045 0.03774884 0.04056992 0.02494283 0.012026314
-0.013981001 0.039122935 -0.054448172 -0.05826017 -0.107623905 -0.13612856 -0.039990578 0.023145955
0.018961195 0.023788841 0.046111234 -0.039589982 0.017134216 -0.0018875026 0.031260915 -0.07755629
0.058053114 -0.00028555532 -0.0022925406 0.04045122 -0.06980846 -0.04887151 -0.05772781 -0.01565611
0.04721605 0.02557173 0.023514057 -0.04873066 -0.04750647 -0.043320637 -0.04604098 -0.06603446
-0.072760485 0.049992505 0.0800532 -0.04154708 -0.055677075 0.0467502 0.11150665 -0.053199135
-0.0338705 0.016653625 0.07288529 -0.1660987 -0.083361775 0.03752747 -0.015826501 0.07964828
-0.017227842 0.023826335 0.093952335 0.057802115 -0.0008140165 0.09502873 0.010823116 -0.079104014
0.037234142 0.024597296 -0.16459148 0.09999503 -0.016681446 0.010264578 -0.034422126 -0.0116046835

fc2.weight f4 [64, 128]
00000000: 8caa a7bc efa8 9e3d e80f 44bd ad82 783d
00000010: 9ef4 b03d d14c 16bd 3161 f0bd 9b66 a23d
00000020: 07fe cc3d fa44 923d 4638 2cbd cbe1 eabb
00000030: 67b1 d63c a402 2abd c2bd 33bd d5a6 01be
00000040: ef01 7d3d efc4 b93c 6341 923d a79a 7a3d
00000050: 0221 1ebd d23f 223d cd16 2c3d dcd8 f9bc
00000060: 6dc0 af3c be7d d5bc 120a d3bc e030 fdbc
00000070: 342c 3fbd f8c4 3a3c 3268 15bc 3e87 12be
00000080: 8eb5 a1bb 0c36 dcbd f5c5 f9bc 4a42 1ebd
00000090: e411 483d 4ea9 1dbd 8c3a 8a3d 6058 95bd
000000a0: abe1 573b 2770 b63d 9dfa 1dbd 94e7 c7bd
000000b0: 37dd 54be 0f58 15be 9776 5f3b 98be 283d
000000c0: b134 98bd 7251 51bd 18b3 013d 050e 00bc
000000d0: da2f a2bd 3290 cbbe 1dba 67bd 812b 5ebc
000000e0: 4802 1f3c f4f8 a93c 7482 143d fbab 8d3d
000000f0: e0ec 133d 17ff ab3d 2c63 93bd 4e35 693d
00000100: c0da 53be ebe2 ca3d 983f b43c 606c 94bc
00000110: 3bfb 42bd 16c7 c33c 8dfd 44bd 14d8 44be
00000120: feaa 82bc 8a77 6c3d 8b34 5b3b dea4 973d
00000130: a30e 093d 1c53 d23d 744a f63d 0086 f63b
00000140: eebb 7fbd a4e3 573d b600 663c bd7f 9ebd
00000150: a5d1 7c3d d139 a33d 6afe 7ebd e990 28bd
00000160: 8bc2 3b3c c717 29bd 512c 5dbc e683 563d
00000170: 96a6 8ebd 0185 16bd eb7d a7bd 4219 8d3d
00000180: 5965 62bd d77d bb3c 93ac e5bc 0913 643c
00000190: b618 a7bd ee64 e93d eb1f 173e e740 973d
000001a0: 61a5 b53d ea07 9cbb d342 c43d 3476 74bd
000001b0: 34e7 a2bd 740d 133d ec78 bd3c a4a8 b6bd
000001c0: 5775 f83c cb3d 423d e39c 193e 6667 b63d
000001d0: a6a8 83be aabe d03d b8cc 5a3d 7fbe 8f3d
000001e0: 9426 3ebd aad7 8abc cb39 adbd efde 4abe
000001f0: 2355 2dbd 9514 b63c 4a52 b73d 9002 963d
00000200: 06e3 7fbd 825c a3bd 0030 eb37 9706 b3bd
00000210: 2861 393c db09 8abd 8038 98bc 0081 d2b9
00000220: 2a06 2c3d 6e59 a8bd ef0f a13d e4a1 84bc
00000230: e81d 6bbc 0d22 903d 04c4 e83c 7dad a1bd
00000240: f06f 81bb e766 64bd 0e6c 4f3d ba22 023d
00000250: c89e 6e3c 98e0 483c d570 8e3d 4596 03bd
00000260: a47e d23c 9ab3 91bd 081c f73c 7c32 dc3c
00000270: 0805 8dbc 6e60 e3bc b819 57bc f9fc afbd
00000280: 5e76 443d aad4 5f3d 40a8 6cbb 1a7a adbd
00000290: 8d4a 9f3d 80c8 83bb 3d99 8f3d db2f 34bd
000002a0: d8c1 abbc 127f 4d3d 8edc 363d 4084 00bb
000002b0: 800b 81bd d055 84bc 9cd7 82bc c041 bfba
000002c0: 6000 4ebd de07 073d 9c0f fc3c 3a12 a4bd
000002d0: 7081 6bbc 5ca2 37bd a4c8 2dbd 1059 eabc
000002e0: 8051 1ebc 22dc 2cbd e8c9 acbc d49e 91bc
000002f0: 1cc3 83bc 5053 3b3c 7aef 1cbd d9fa 39bd
00000300: 2899 54bd f08d a23b 614c 1ebd c035 ee3b
00000310: e7b0 afbd bcee 68bd c0b0 1fbc 1df1 8b3d
00000320: d190 2ebd 1f80 85bd 127e 093d f433 6dbd
00000330: 3462 93bd f7ea 853d a346 34bd c2d2 323d
00000340: 680c 3ebc e5f2 a53d 8036 9b3a 5bb2 a33d
00000350: b5ad aa3d 981b 983c 6e71 3d3d cc85 c93c
00000360: a0f4 80bc 80d0 26bb 028a 753d 8b8b af3d
00000370: bd8b a8bd 5c3f 063d 7f4e a23d 698d 993d
00000380: b294 613d 4036 683c 9bf0 b03d 169c 0d3d
00000390: 7133 1abd e76f 9a3d 41c1 a33d 52e8 5e3d
000003a0: 40f0 9bbd 6cb7 b23c 752e b0bd b7b5 0dbd
000003b0: 0715 883d 06f1 233d abc6 98bd e504 963d
000003c0: 10a4 a5bc 38ca e73c a02d 04bc fcd2 6dbd
000003d0: 8c5f bebc 8a7e 0f3d d02f d3bc 6f77 813d
000003e0: 4144 b23d 6396 a3bd 20bf 67bb 7927 833d
000003f0: 003f 733c b32a 84bd c4a4 c53c 16a5 f8bc
-0.020467065 0.07747065 -0.047866732 0.060671497 0.08640407 -0.03669435 -0.11737288 0.07929727
0.10009389 0.071420625 -0.042045854 -0.00716803 0.026207639 -0.041506425 -0.04388214 -0.12661298
0.061769422 0.022676913 0.07141378 0.061182644 -0.038605697 0.039611645 0.042013932 -0.030498914
0.02145406 -0.026060935 -0.025761638 -0.030907094 -0.046673015 0.0113995 -0.00911908 -0.14309403
-0.004934973 -0.10752496 -0.030489901 -0.038637437 0.048845187 -0.03849154 0.06749448 -0.07292247
0.0032940905 0.0890811 -0.03856908 -0.09760967 -0.20787512 -0.14584373 0.0034097785 0.04119739
-0.07431925 -0.051103063 0.031664938 -0.0078158425 -0.07919283 -0.3975845 -0.056573976 -0.013560177
0.009705134 0.020748593 0.036257222 0.06917568 0.036114573 0.08398264 -0.0719665 0.0569356
-0.20688915 0.099065624 0.02200298 -0.018118083 -0.047602873 0.023898643 -0.048093367 -0.19223052
-0.015950676 0.05773119 0.0033448066 0.07404493 0.033461224 0.10269758 0.120259196 0.0075232983
-0.062435083 0.05270733 0.014038255 -0.07739208 0.06172337 0.07970012 -0.062254347 -0.041153822
0.011459957 -0.04128244 -0.013499335 0.052371882 -0.069653675 -0.036747936 -0.08178314 0.06889583
-0.055272434 0.022887154 -0.028036391 0.013920554 -0.0815901 0.11396204 0.1475827 0.07385426
0.08869434 -0.0047616856 0.09583058 -0.05968304 -0.07954255 0.0359015 0.02312895 -0.089188844
0.03032939 0.04742221 0.15001254 0.089064404 -0.25714606 0.10192616 0.05341789 0.07018756
-0.04642351 -0.01694854 -0.08458289 -0.19811605 -0.04231752 0.022226611 0.08951242 0.073247075
-0.062472366 -0.07976629 2.8036535e-05 -0.08741491 0.011314668 -0.06740161 -0.018581629 -0.00040150434
0.041998066 -0.08220182 0.07864367 -0.016190477 -0.014350392 0.07037745 0.02841378 -0.078944184
-0.0039501116 -0.055762198 0.05064016 0.0317714 0.014564224 0.012260579 0.06955115 -0.03212573
0.025695153 -0.071143344 0.030164734 0.026879542 -0.017214313 -0.027755942 -0.01312869 -0.085931726
0.047964446 0.05464617 -0.0036111027 -0.08470555 0.07777891 -0.004021704 0.0701165 -0.04399095
-0.020966455 0.05017001 0.04464393 -0.0019610077 -0.063010216 -0.0161542 -0.015971951 -0.0014591739
-0.050293326 0.032966487 0.030769162 -0.08011289 -0.014374122 -0.044832572 -0.042427674 -0.028606921
-0.009662986 -0.042202123 -0.02109237 -0.01777593 -0.016084246 0.0114334375 -0.03831432 -0.045405243
-0.051903874 0.004960768 -0.03864706 0.007269591 -0.08578663 -0.0568683 -0.00974673 0.06833098
-0.042618576 -0.06518578 0.033567496 -0.057910874 -0.07196465 0.065389566 -0.044012677 0.043658026
-0.011599638 0.08102969 0.0011841804 0.07993003 0.08333913 0.018567845 0.046250753 0.024599932
-0.015741646 -0.0025453866 0.059946068 0.085715376 -0.08229778 0.032775268 0.07925128 0.07497675
0.055073448 0.01417309 0.08639642 0.034572683 -0.037646715 0.07540875 0.07995845 0.054420777
-0.076141834 0.021815978 -0.08602611 -0.034597125 0.06644636 0.04002478 -0.07459768 0.07325152
-0.020219833 0.028294668 -0.0080675185 -0.05806254 -0.02323892 0.035032786 -0.025779635 0.06321608
0.08704425 -0.07987668 -0.0035361722 0.06404013 0.014846563 -0.06453457 0.024126418 -0.030352157

fc2.bias f4 [64]
00000000: ddef fe3c 226f 5ebd 8aab c43b 44ba 26bd
00000010: 8cfc 5fbd c0e9 9bbd 931a 01bd 1996 043b
00000020: 9003 a0bd f363 e4bd fb6f 2f3e c98c 84bd
00000030: ac0e 943c ac23 12bd 6cd8 02bc b12f a4bd
00000040: 5260 e5bc 9751 313d 7c93 26bc f570 813d
00000050: 0882 393c 1f89 abbd 99c9 26bd 3677 f9bc
00000060: 2653 3bbe 489b bebc 646b 1d3d d0ff 773d
00000070: 20b7 efbc dbd5 bd3c 13b6 83bd cb43 e33a
00000080: 5947 d1bb 1bc2 e83d 98a1 e23b f90a c7bd
00000090: 8899 8a3d c19f a03d 3ac0 133a cc66 e9bd
000000a0: 90f3 b63d 2499 ce3d 507d 053d 2170 573d
000000b0: 9ce9 a3bd 74aa 44bd 302b 7bbd 9678 be3b
000000c0: 2031 9abc 94a2 763d 9e96 153d 63d5 123d
000000d0: 53ce e73c 6534 17bd 823e 7abd dea2 533d
000000e0: d3ca 09bd e26f 0f3e 27a9 a3bd 6a5d a93d
000000f0: 8c57 cbbc 5e2d 93bd 8dac abbd 6f90 6ebc
0.031120235 -0.054305203 0.0060018944 -0.04070498 -0.054684207 -0.07612944 -0.031519484 0.0020231067
-0.078131795 -0.11151876 0.17132561 -0.06472165 0.018073402 -0.03567855 -0.007986169 -0.08016909
-0.02800003 0.0432907 -0.010166999 0.06320373 0.011322506 -0.08375763 -0.040719602 -0.030452352
-0.18293437 -0.023267403 0.038432494 0.060546696 -0.029262125 0.023173263 -0.06431212 0.001733893
-0.006386679 0.11365148 0.006916236 -0.0971889 0.06767565 0.07842971 0.0005636249 -0.1139656
0.089331746 0.10087803 0.03259021 0.05259717 -0.08003542 -0.04801412 -0.061320484 0.005812715
-0.018822253 0.06021364 0.036520593 0.035848033 0.028296625 -0.0369152 -0.06109477 0.051668994
-0.033640694 0.14007524 -0.079912476 0.082697704 -0.024822019 -0.071863875 -0.08382521 -0.014560803

fc3.weight f4 [1, 64]
00000000: 4d6c 573d a2b5 aabd cdba 053b ef9d 13bc
00000010: 2c32 5bbd c3ac 3fbd 9577 4d3d bfe9 d43b
00000020: 6b15 8fbc c435 c9bc 3ba5 103e 5459 6cbd
00000030: 6338 cf3d 4f4d 84ba 491b cbbd 2cf6 dabd
00000040: 83d1 933d 4dd1 123e 8efd 763d df58 333d
00000050: 9cef 853d e3da 1cbc 224a 8d3d c934 6abd
00000060: 77c1 e6bd d646 9f3d 4b0b 7d3d f6f6 3ebc
00000070: c89f c93c 8ce7 d03d d769 083d ffae d239
00000080: 8640 833c 2209 18be 4ba2 d73d 3be3 6bbd
00000090: 9c31 8abd 3558 3ebd 3052 903b 1fe3 b8bc
000000a0: fa39 f23d d4e1 cbbd 67af d03d ae04 1ebd
000000b0: ae47 9ebd 2acf d3bb 6af6 d83d 14cf e939
000000c0: cda7 593c 7ffe 7b3c d985 913d 5805 85bb
000000d0: ff28 b13d ac8b a4bc 8398 75bd 4dad cf3d
000000e0: 8e30 98bc 85ee c4bd 242e 633d f887 4cbd
000000f0: 4e32 833d 5c18 c5bd 315d c8bd a5f9 87bd
0.052593518 -0.08335425 0.0020405531 -0.009009822 -0.053514645 -0.046795618 0.05016287 0.0064975913
-0.017466268 -0.02456177 0.1412553 -0.057702377 0.10118177 -0.001009384 -0.099173136 -0.10691485
0.072176956 0.14337654 0.060300402 0.043785926 0.065398425 -0.009573671 0.06898905 -0.057179246
-0.11267369 0.07777183 0.061778348 -0.01165556 0.024612322 0.10200414 0.03330406 0.00040184704
0.016021978 -0.14847234 0.10529002 -0.05758975 -0.067477435 -0.04647084 0.0044043288 -0.022569237
0.118274644 -0.09955183 0.10189705 -0.03857868 -0.077285156 -0.006463905 0.10593875 0.00044595508
0.013284636 0.015380501 0.071056075 -0.004059475 0.086503975 -0.020086132 -0.0599599 0.101404764
-0.01857784 -0.096158065 0.055463925 -0.049934357 0.06406079 -0.09623787 -0.097834 -0.06639413
